scripts/IAE_Test_TORCH_CNN.pth (torch, 19023 bytes, 43 tensors)

encoder1.0.weight f4 [2, 1, 2]
000000 13 29 f4 3e a0 23 86 3e f3 7e 64 bc 5b 16 51 bd
       0.47687587 0.26199055 -0.013946283 -0.05104671

encoder1.1.weight f4 [2]
000000 ce 55 42 3f 10 89 3d 40
       0.7591218 2.9614906

encoder1.1.bias f4 [2]
000000 24 42 12 3f 23 b4 d2 bf
       0.5713217 -1.6461223

encoder1.1.running_mean f4 [2]
000000 0c 80 6b 3d 10 0e a5 bb
       0.057495162 -0.005037077

encoder1.1.running_var f4 [2]
000000 ab 86 de 3b 80 91 5b 38
       0.006790956 5.2349176e-05

encoder2.0.weight f4 [2, 2, 2]
000000 c7 98 81 3e f5 30 82 3e 8a 8a 90 be 7a 61 2c be
       0.25311872 0.25427976 -0.28230697 -0.1683406
000010 fe 06 ba be bc e6 68 bd 11 27 7e 3e 2a 5e e7 3c
       -0.3633346 -0.05686067 0.2481959 0.028243143

encoder2.1.weight f4 [2]
000000 57 14 2c 3f 4d df f8 3e
       0.67218536 0.48607865

encoder2.1.bias f4 [2]
000000 ab 1e 18 3f 7b 47 8d 3d
       0.59421796 0.068983994

encoder2.1.running_mean f4 [2]
000000 6c e8 db 3e 7b 26 a7 be
       0.4295076 -0.32646546

encoder2.1.running_var f4 [2]
000000 72 64 b9 3e df 3e 4f 3e
       0.36209446 0.20238827

encoder_lat1.0.weight f4 [2, 2, 2]
000000 6b 5e 2b 3e 70 94 35 bd 47 05 3d 3e db d7 c2 be
       0.16735236 -0.044331014 0.18459044 -0.3805531
000010 0c 47 af be 3b b4 9a 3e c5 4b 6e 3e 00 5b 83 bd
       -0.34233892 0.3021563 0.23271091 -0.06413841

encoder_lat1.1.weight f4 [2]
000000 bf b0 4d 3e 2e 9e 13 3e
       0.20086955 0.1441581

encoder_lat1.1.bias f4 [2]
000000 15 b8 41 bd 21 c8 e3 be
       -0.047294695 -0.44488624

encoder_lat1.1.running_mean f4 [2]
000000 9e 0a 05 3e 55 8b 9b bd
       0.12992331 -0.07594935

encoder_lat1.1.running_var f4 [2]
000000 07 88 15 3d 56 75 73 3c
       0.03650668 0.014859518

encoder3.0.weight f4 [2, 2, 2]
000000 1c 30 4a 3e 51 3e 19 bf cf c9 38 be 39 33 57 3e
       0.19744915 -0.5986071 -0.18045734 0.21015634
000010 82 31 33 3d 72 11 f7 be aa 69 81 bd ca 8f 2f be
       0.043748386 -0.48255497 -0.06318982 -0.17144695

encoder3.1.weight f4 [2]
000000 55 aa 05 3e d9 d3 9f 3e
       0.13053258 0.31216314

encoder3.1.bias f4 [2]
000000 20 b4 35 be 3a 46 47 bd
       -0.17744493 -0.048650958

encoder3.1.running_mean f4 [2]
000000 8c ec 6d be 6c 4d 93 be
       -0.23234767 -0.28770006

encoder3.1.running_var f4 [2]
000000 1b c3 a8 3d 84 0f 2d 3d
       0.082403384 0.042251125

encoder_lat2.0.weight f4 [2, 2, 2]
000000 42 ec 73 3e ff dc 22 3e b2 94 9e bd 4f a5 4d 3e
       0.23820594 0.15904616 -0.07743205 0.20082591
000010 3b db e1 be 59 5b 03 3e 2b 64 06 3d 58 d3 9a be
       -0.44112572 0.12827815 0.03281037 -0.30239367

encoder_lat2.1.weight f4 [2]
000000 51 04 17 3f 16 46 97 3d
       0.5899096 0.07386415

encoder_lat2.1.bias f4 [2]
000000 72 29 ed be 82 57 95 be
       -0.46320683 -0.29168326

encoder_lat2.1.running_mean f4 [2]
000000 fc e9 80 3e 66 80 61 be
       0.25178516 -0.22021636

encoder_lat2.1.running_var f4 [2]
000000 ff 55 43 3d df d4 49 3c
       0.047689434 0.012318819

encoder4.0.weight f4 [2, 2, 2]
000000 f0 3d d5 bd 36 ae 5e 3e fd 83 2a be 57 df ed be
       -0.10412204 0.21746144 -0.16651912 -0.46459457
000010 82 34 8f be 38 59 1b bf 85 c1 c6 bc 68 18 1a 3e
       -0.27969748 -0.6068301 -0.0242622 0.15048373

encoder4.1.weight f4 [2]
000000 c8 79 4c 3f 52 3c 56 3f
       0.79873323 0.8368579

encoder4.1.bias f4 [2]
000000 8c 5f 83 be ec fb 80 be
       -0.25658834 -0.251922

encoder4.1.running_mean f4 [2]
000000 ce ff f5 bb 57 41 0b 3e
       -0.007507301 0.13599144

encoder4.1.running_var f4 [2]
000000 c6 58 b5 3c 94 db 67 3b
       0.022137057 0.0035378681

encoder_lat3.0.weight f4 [2, 2, 2]
000000 ba 02 a0 be 73 00 9c 3e c7 7a 36 3e 62 73 05 be
       -0.3125208 0.30469093 0.17820273 -0.13032296
000010 64 2d a1 be d8 cb 47 3e 7d 54 60 3e f8 50 e0 bd
       -0.31479943 0.19511354 0.2190723 -0.109529436

encoder_lat3.1.weight f4 [2]
000000 ef 90 3e 3e e8 d1 c0 3d
       0.18609975 0.094150364

encoder_lat3.1.bias f4 [2]
000000 26 89 d9 3d f0 7e a8 3c
       0.10621862 0.020568341

encoder_lat3.1.running_mean f4 [2]
000000 04 82 af 39 5d da 88 3c
       0.0003347547 0.016705686

encoder_lat3.1.running_var f4 [2]
000000 af a1 03 39 b1 ee 7a 39
       0.00012553365 0.00023930777

decoder1.0.weight f4 [2, 2, 2]
000000 4d 1b 45 3e b8 7e 65 3e 19 3a 44 3e 2d de f1 3e
       0.19248696 0.2241162 0.19162787 0.4723982
000010 76 4c 55 be fa 62 32 3c 69 b5 6c be ef 5f 0b bf
       -0.20829949 0.010887856 -0.23116077 -0.5444326

decoder_lat1.0.weight f4 [2, 2, 2]
000000 98 13 fc 39 6b a7 d7 3e d5 dd 08 bf af 1e 9a be
       0.00048079784 0.42119917 -0.5346349 -0.30101535
000010 45 e9 0a bf 2a 02 c8 3e 0b 9d 03 bf bc 9d 0d 3f
       -0.5426219 0.3906415 -0.51411504 0.5531881

decoder2.0.weight f4 [2, 2, 2]
000000 6a ce af 3d bc d1 db be a9 f6 09 3e 63 76 e8 be
       0.08584292 -0.42933452 0.13473 -0.45402822
000010 ba 53 22 be 68 fa bf be e2 40 73 be d0 a2 ad be
       -0.15852252 -0.37495732 -0.2375522 -0.3391328

decoder_lat2.0.weight f4 [2, 2, 2]
000000 d9 e8 92 3e f1 2c b4 3d 5c 6d 83 be 66 e2 a9 bc
       0.28693274 0.087976344 -0.25669372 -0.020737838
000010 8f 0a d8 be fe fd d9 bc 94 a4 f5 3e ec 6b 4c bc
       -0.42195556 -0.02661037 0.47977126 -0.012476902

decoder3.0.weight f4 [2, 2, 2]
000000 64 ea 31 3f bb 1b 08 3f 25 03 1d 3e 5c 41 ee 3e
       0.69498277 0.53167313 0.15333231 0.4653424
000010 77 50 ec 3e b0 07 a4 3e 1e f3 00 bf f7 86 c3 3c
       0.4615514 0.32037115 -0.5037097 0.023868067

decoder_lat3.0.weight f4 [2, 2, 2]
000000 77 09 17 be b0 27 8c 3e 86 e9 57 3e d3 08 b1 be
       -0.14749704 0.2737403 0.21085176 -0.34577045
000010 c2 93 e5 3c 52 97 a0 be ba f8 80 be 54 f5 0e 3e
       0.028024558 -0.31365448 -0.25189763 0.13960773

decoder4.0.weight f4 [2, 1, 2]
000000 8f 19 90 3d 9d 1a 07 3e f0 ef fd 3e ba 6a eb 3d
       0.07036125 0.13193746 0.4959712 0.11494966

AnchorPoints f4 [2, 288, 1]
000000 e2 e6 2a 3d a8 78 35 3d 43 61 31 3d fd 69 31 3d
       0.041724093 0.04430452 0.043305647 0.04331397
000010 20 ea 35 3d 48 07 38 3d 65 c7 3b 3d ff 95 3d 3d
       0.044412732 0.04492882 0.045844454 0.046285626
000020 3b 53 42 3d e9 c1 46 3d a1 73 4f 3d aa 93 50 3d
       0.047442656 0.04852477 0.05064738 0.050922073
000030 7f fc 53 3d a0 50 4c 3d a0 50 4c 3d 72 59 4f 3d
       0.05175447 0.049881577 0.049881577 0.05062241
000040 bd f6 55 3d bd 10 50 3d d9 93 56 3d d4 f6 58 3d
       0.05223726 0.050797213 0.052387092 0.05296977
000050 ea d3 58 3d c2 9c 5c 3d 1b 1a 65 3d e5 02 67 3d
       0.052936472 0.053860433 0.0559331 0.056399245
000060 bc cb 6a 3d 65 94 68 3d 2c 37 64 3d ff 62 6a 3d
       0.057323202 0.056782145 0.05571668 0.057223316
000070 d5 08 6b 3d 3a 17 66 3d fa c5 6c 3d 06 46 6e 3d
       0.05738147 0.056174494 0.057805993 0.05817225
000080 16 52 7c 3d a0 4d 85 3d 6b 7c 8d 3d bd fc 97 3d
       0.06160172 0.065089464 0.069084965 0.07421253
000090 7e db 9e 3d db c5 a4 3d 7f f1 a4 3d fc ff a2 3d
       0.077567086 0.080455504 0.08053874 0.079589814
0000a0 41 04 a0 3d 4a 31 9e 3d 35 6e 98 3d 36 9e 98 3d
       0.07813311 0.07724245 0.07442895 0.07452051
0000b0 88 22 97 3d bb b6 91 3d 67 df 8f 3d e9 ad 8e 3d
       0.07379633 0.07114931 0.070250325 0.069667645
0000c0 c4 e3 8f 3d eb ea 8b 3d 6a 59 8a 3d 13 22 88 3d
       0.07025865 0.068319164 0.06755336 0.06647124
0000d0 80 36 8a 3d bf 4a 86 3d ed 34 86 3d 0a 0f 84 3d
       0.06748676 0.065572254 0.065530635 0.06448181
0000e0 4f d6 83 3d fa f1 84 3d 78 30 83 3d 7c c0 83 3d
       0.064373605 0.06491466 0.06405729 0.06433198
0000f0 de 61 81 3d 21 f9 80 3d fe 37 7f 3d 1b ef 79 3d
       0.06317495 0.062975176 0.062309258 0.061019044
000100 fd 14 7c 3d b9 5a 79 3d 73 49 7f 3d 5d 7d 70 3d
       0.061543453 0.060877535 0.062325906 0.058713306
000110 49 e6 76 3d 4a 09 7a 3d 28 ac 78 3d 85 9a 72 3d
       0.06027821 0.061044015 0.060711056 0.059229393
000120 de 28 6c 3d c8 54 75 3d ef 4e 74 3d a4 b1 6d 3d
       0.05765616 0.059895307 0.05964559 0.05803074
000130 55 80 72 3d b3 9a 78 3d 2c 26 73 3d 39 c9 77 3d
       0.05920442 0.060694408 0.059362575 0.060494635
000140 c6 f4 74 3d b9 5a 79 3d 35 4f 7d 3d d6 1a 7d 3d
       0.059803747 0.060877535 0.061843116 0.06179317
000150 cf 1d 7f 3d ba ba 85 3d 25 89 81 3d ab b7 80 3d
       0.062284287 0.06529756 0.06324986 0.06285032
000160 ce fa 7b 3d 98 17 72 3d bf 11 71 3d 48 d4 64 3d
       0.061518483 0.059104532 0.058854815 0.05586651
000170 b1 76 54 3d 79 4d 44 3d 58 1b 2e 3d e3 1a 1f 3d
       0.051871005 0.047925446 0.042506546 0.038844
000180 ae 51 0f 3d 29 34 01 3d 36 ff f5 3c 63 db d7 3c
       0.034990005 0.031543884 0.03002892 0.026349729
000190 ae 89 cf 3c f7 14 c4 3c af ce b4 3c 5f 94 b0 3c
       0.025334205 0.023935778 0.02207121 0.021555124
0001a0 68 ab a8 3c 09 77 a8 3c 48 a5 9e 3c 32 c8 9e 3c
       0.020589545 0.020564573 0.019365922 0.01938257
0001b0 09 88 99 3c a8 0d 93 3c 93 53 96 3c de 01 8e 3c
       0.018741624 0.017950848 0.018350398 0.017334875
0001c0 6a 13 91 3c 45 4d 86 3c a2 4d 92 3c 74 70 8f 3c
       0.017709453 0.016394267 0.017859284 0.017509677
0001d0 6a 13 91 3c 73 2b aa 3c 74 2c cb 3c 84 ee 06 3d
       0.017709453 0.020772671 0.02480147 0.03294231
0001e0 2d 8d 3a 3d 5f e6 85 3d e2 93 c3 3d 5f d0 0d 3e
       0.045544792 0.065380804 0.09549691 0.13849019
0001f0 44 21 43 3e bc c2 82 3e 72 0b a6 3e 3d 19 c9 3e
       0.19055659 0.25539196 0.32430607 0.39277068
000200 22 73 e3 3e dd 8c f8 3e 00 00 00 3f f3 69 f8 3e
       0.44423777 0.4854497 0.5 0.48518333
000210 b7 bd e4 3e cf ec c6 3e 9f ea a2 3e 1c b3 7f 3e
       0.4467599 0.38852546 0.31819627 0.24970669
000220 44 0b 3d 3e 27 8d 03 3e fa cb ae 3d 28 ce 5a 3d
       0.18461329 0.12846814 0.08534999 0.053419262
000230 18 17 02 3d 88 f6 97 3c 83 51 23 3c c2 6f ab 3b
       0.031760305 0.018550172 0.009968164 0.0052318284
000240 10 ab 14 3b d7 52 bd 3a 8a 12 04 3a 8a 12 04 3a
       0.002268497 0.0014444244 0.0005038163 0.0005038163
000250 8a 12 04 3a 8a 12 04 3a 8a 12 04 3a 8a 12 04 3a
       0.0005038163 0.0005038163 0.0005038163 0.0005038163
000260 8a 12 04 3a 8a 12 04 3a 8a 12 04 3a 8a 12 04 3a
       0.0005038163 0.0005038163 0.0005038163 0.0005038163
000270 8a 12 04 3a 8a 12 04 3a 8a 12 04 3a 8a 12 04 3a
       0.0005038163 0.0005038163 0.0005038163 0.0005038163
000280 8a 12 04 3a 8a 12 04 3a 8a 12 04 3a 8a 12 04 3a
       0.0005038163 0.0005038163 0.0005038163 0.0005038163
000290 8a 12 04 3a 8a 12 04 3a 8a 12 04 3a 8a 12 04 3a
       0.0005038163 0.0005038163 0.0005038163 0.0005038163
0002a0 8a 12 04 3a 8a 12 04 3a 8a 12 04 3a 8a 12 04 3a
       0.0005038163 0.0005038163 0.0005038163 0.0005038163
0002b0 8a 12 04 3a 8a 12 04 3a 8a 12 04 3a 8a 12 04 3a
       0.0005038163 0.0005038163 0.0005038163 0.0005038163
0002c0 8a 12 04 3a 8a 12 04 3a 8a 12 04 3a 8a 12 04 3a
       0.0005038163 0.0005038163 0.0005038163 0.0005038163
0002d0 8a 12 04 3a 8a 12 04 3a 8a 12 04 3a 8a 12 04 3a
       0.0005038163 0.0005038163 0.0005038163 0.0005038163
0002e0 8a 12 04 3a 8a 12 04 3a 8a 12 04 3a 8a 12 04 3a
       0.0005038163 0.0005038163 0.0005038163 0.0005038163
0002f0 8a 12 04 3a 8a 12 04 3a 8a 12 04 3a 8a 12 04 3a
       0.0005038163 0.0005038163 0.0005038163 0.0005038163
000300 8a 12 04 3a 8a 12 04 3a 8a 12 04 3a 8a 12 04 3a
       0.0005038163 0.0005038163 0.0005038163 0.0005038163
000310 8a 12 04 3a 8a 12 04 3a 8a 12 04 3a 8a 12 04 3a
       0.0005038163 0.0005038163 0.0005038163 0.0005038163
000320 8a 12 04 3a 8a 12 04 3a 8a 12 04 3a 8a 12 04 3a
       0.0005038163 0.0005038163 0.0005038163 0.0005038163
000330 8a 12 04 3a 8a 12 04 3a 8a 12 04 3a 8a 12 04 3a
       0.0005038163 0.0005038163 0.0005038163 0.0005038163
000340 8a 12 04 3a 8a 12 04 3a 8a 12 04 3a 8a 12 04 3a
       0.0005038163 0.0005038163 0.0005038163 0.0005038163
000350 8a 12 04 3a 8a 12 04 3a 8a 12 04 3a 8a 12 04 3a
       0.0005038163 0.0005038163 0.0005038163 0.0005038163
000360 8a 12 04 3a 8a 12 04 3a 8a 12 04 3a 8a 12 04 3a
       0.0005038163 0.0005038163 0.0005038163 0.0005038163
000370 8a 12 04 3a 8a 12 04 3a 8a 12 04 3a 8a 12 04 3a
       0.0005038163 0.0005038163 0.0005038163 0.0005038163
000380 8a 12 04 3a 8a 12 04 3a 8a 12 04 3a 8a 12 04 3a
       0.0005038163 0.0005038163 0.0005038163 0.0005038163
000390 8a 12 04 3a 8a 12 04 3a 8a 12 04 3a 8a 12 04 3a
       0.0005038163 0.0005038163 0.0005038163 0.0005038163
0003a0 8a 12 04 3a 8a 12 04 3a 8a 12 04 3a 8a 12 04 3a
       0.0005038163 0.0005038163 0.0005038163 0.0005038163
0003b0 8a 12 04 3a 8a 12 04 3a 8a 12 04 3a 8a 12 04 3a
       0.0005038163 0.0005038163 0.0005038163 0.0005038163
0003c0 8a 12 04 3a 8a 12 04 3a 8a 12 04 3a 8a 12 04 3a
       0.0005038163 0.0005038163 0.0005038163 0.0005038163
0003d0 8a 12 04 3a 8a 12 04 3a 8a 12 04 3a 8a 12 04 3a
       0.0005038163 0.0005038163 0.0005038163 0.0005038163
0003e0 8a 12 04 3a 8a 12 04 3a 8a 12 04 3a 8a 12 04 3a
       0.0005038163 0.0005038163 0.0005038163 0.0005038163
0003f0 8a 12 04 3a 8a 12 04 3a 8a 12 04 3a 8a 12 04 3a
       0.0005038163 0.0005038163 0.0005038163 0.0005038163
